H1/weight.npy (npy, 1432 bytes, 1 tensors)

array f8 [163, 1]
000000 6d d7 f9 39 c0 5f 35 40 08 60 e7 21 91 13 dc 3f
       21.37402689313551 0.4386942702381025
000010 87 d2 1c 47 9c 7a eb bf b7 bb a8 8f 0d c9 eb 3f
       -0.8587170971791956 0.868292599281509
000020 02 e5 d5 9d 97 25 f5 bf 1f 91 bd 80 41 15 bf bf
       -1.3216777959299297 -0.12141808884695536
000030 7e da 1d 6d 74 5b ee 3f 7c 9e 52 cd 25 f3 e5 bf
       0.9486639147933855 -0.685931111355742
000040 13 18 ae 26 46 5a f0 bf d6 e8 e6 f9 5c 92 fa 3f
       -1.0220395575465815 1.6607332002445694
000050 b5 65 41 8c a8 0c d5 bf 32 fd f7 fd ef 6c c2 3f
       -0.3288976068193635 0.14394950772109777
000060 2a a7 bc 41 bd 07 b3 3f 1e 03 0b a0 29 07 bb 3f
       0.07433684210687078 0.10557804257679179
000070 78 63 a0 2e 07 f9 a2 bf d4 e3 a9 fa f6 29 91 bf
       -0.037056183282579036 -0.016761645364088043
000080 ec 2d a0 98 21 55 c7 bf 25 ba 81 fd 2e 00 c5 3f
       -0.18228549911906045 0.1640681016755973
000090 73 81 c8 2e c1 94 e0 3f 9c ff 7c 9c 18 60 aa 3f
       0.5181585229620808 0.051514405348370235
0000a0 ad de ff a1 f5 9d 97 bf 5a 3e c3 55 01 b9 b0 3f
       -0.023063505184807088 0.06532295554938497
0000b0 da 99 10 4b ff 5f c4 bf 71 26 93 b7 56 80 c3 3f
       -0.159179603245504 0.15235408748258153
0000c0 c4 84 20 a5 b8 ca 95 bf d9 fa d6 8e 78 eb c4 bf
       -0.021281132772973846 -0.16343600248907
0000d0 ba 1e e7 b5 6d 0b b4 3f 7d bc 95 20 30 da d9 3f
       0.07829938593851696 0.4039421385013567
0000e0 94 f0 48 7d de c3 d4 bf 4c d2 5c 5a 08 80 d8 3f
       -0.32445490107398567 0.3828144915053471
0000f0 ce ff 69 f1 de a0 d0 bf 0b 71 41 ea 77 1f d3 3f
       -0.259818778758924 0.2987956798222206
000100 19 6d d1 89 03 f8 d2 3f 68 9b b3 28 b3 f0 df bf
       0.29638756235881797 -0.4990661523319688
000110 95 6c 56 c3 e7 04 b6 3f 1c 57 67 04 c2 c8 c6 3f
       0.08601234930977093 0.17800164427779286
000120 fa 74 c4 a6 6b f2 b5 3f d8 1b 6d ac 39 33 ba 3f
       0.08573029347867936 0.10234413585304425
000130 ec 44 27 77 0b 5b b0 3f ed 78 7d 67 15 0e cd 3f
       0.06388923319834178 0.22699229768017606
000140 a9 c1 8b 7e 75 a5 d5 bf b9 dd 5a 75 a9 ff c1 bf
       -0.3382238136100804 -0.14061468343946418
000150 71 44 a3 50 5c 33 d1 bf 91 e5 35 f6 ab 47 af bf
       -0.26875980257779647 -0.06109368687152562
000160 0f dd e2 20 7c da a2 3f 9c da 8f e2 0e 70 df bf
       0.03682315732424445 -0.4912144863623469
000170 41 c6 28 71 02 a7 d4 3f ac b2 1c ff 56 6d cf bf
       0.32269345331869564 -0.24552428681035587
000180 24 50 06 a4 1e 2b ce bf f4 9f ae 87 81 4d ed bf
       -0.235690908517996 -0.9157111787835661
000190 c7 56 72 86 33 dc e1 bf aa fb 0e 38 ba 5c cc bf
       -0.5581300378714439 -0.22157981621964257
0001a0 3c 7d ce a3 99 95 e3 bf 6f 39 ee 0a 90 b1 f2 bf
       -0.612011737761271 -1.168350260446086
0001b0 2b 21 ad b6 06 c0 e6 3f 89 d0 7e 89 8e 4a ae bf
       0.7109407012840497 -0.05916257313165924
0001c0 9e 7f 65 91 db 03 d7 bf e4 b5 fc 0e 20 5b c7 3f
       -0.35961045454859597 0.1824684212855764
0001d0 a5 91 4f 4f ff 18 ed 3f 58 33 b4 bb 7c 62 e1 3f
       0.9093014287032487 0.5432723680583917
0001e0 9e 2b f4 65 78 4b d6 3f 3e 44 ed 13 3f 7a d6 3f
       0.3483563419001089 0.3512113279912831
0001f0 d0 74 0f 25 5d a9 e6 3f 91 3f d5 5c d2 0d f4 3f
       0.7081742976985428 1.253374445561324
000200 a0 12 b4 5c 03 01 83 bf c0 fb 62 b4 4c a8 d2 3f
       -0.009279276148398907 0.29152219406017466
000210 74 f5 23 7e 31 7b cc bf b9 96 ca 26 42 76 d4 bf
       -0.22250956210329387 -0.31971792019099216
000220 9a 87 66 c0 e6 51 9a bf 5a 84 79 37 38 d6 e1 bf
       -0.02570305394477366 -0.5573998530854951
000230 83 fe 91 e0 ad c9 dc bf 49 3c 08 48 ff 93 ca bf
       -0.44980952196781504 -0.2076415158958034
000240 84 0a da 0e a5 24 fd 3f a7 a4 81 89 cb cd cd 3f
       1.8214464740891865 0.23284286703281973
000250 66 1b 70 37 eb c9 cb 3f 20 fd 5f 60 16 3d e9 bf
       0.21709957320146173 -0.788706958992325
000260 c5 a8 d1 70 82 26 f2 3f 05 65 37 c3 7d 81 ce bf
       1.13440174169459 -0.23832675964403208
000270 79 3b ae 5c 5e 18 f0 bf 96 55 8b 7d 0a 4b f0 3f
       -1.0059493656478635 1.0183205513070326
000280 5e d5 8a b4 db fd b1 bf af 93 bc 86 e8 a5 ed 3f
       -0.07027981908580247 0.9265024787497306
000290 a2 ee 91 5c 28 5b e3 bf 61 50 7b 9e d3 cb c9 bf
       -0.6048776443489781 -0.20153279531826043
0002a0 a1 a5 e6 fc d1 91 0c 40 91 80 ce 4f 8e 65 0f c0
       3.571201301373279 -3.924587844361732
0002b0 df 3c f2 3c f5 37 d6 bf d4 45 38 b3 be 50 20 40
       -0.34716540290624026 8.157704926127657
0002c0 33 6f 45 d5 0e 74 22 c0 8f 75 66 6e 76 ee d9 3f
       -9.22667566750133 0.40517960339806164
0002d0 7d 86 2d ea 2f a7 2f 40 ef 40 9a 34 39 95 b3 3f
       15.826537435586255 0.07649571928255104
0002e0 40 77 3d f9 9c ef 93 bf b7 fb 81 ac 42 cb b7 bf
       -0.019468739235313892 -0.09294525825133247
0002f0 35 b4 62 c8 e7 56 94 3f b6 88 b1 4f e6 b7 bc bf
       0.019862767797054388 -0.11218108602182295
000300 71 54 a4 f7 74 63 ba 3f a5 f2 cb 34 c0 15 a3 3f
       0.10308009191460756 0.03727532047739616
000310 ee d1 f4 d5 20 d3 b4 bf 41 29 9a ba 42 86 c4 bf
       -0.08134656165640994 -0.16034731017527729
000320 79 0d e9 9f 99 f6 bc bf 8e d5 01 2b 9d b6 d2 3f
       -0.1131378188520581 0.2923958702079624
000330 d9 52 b0 86 64 cd c7 3f 59 40 de 75 69 8d e3 bf
       0.18595558716392338 -0.6110122015106852
000340 fe 3d 27 6b bc fc e8 bf 80 d4 da af cc 3b f5 3f
       -0.7808515637242974 1.3270995015457459
000350 49 5c 6d 06 a7 ae f9 bf b2 07 7a bd cb 1c dc 3f
       -1.6051397563039862 0.439257559810467
000360 7b fd 3c d1 20 66 de 3f 5a cd 45 8a 27 9d e0 bf
       0.47498341020033025 -0.519183893264578
000370 db 23 a8 86 d4 95 e3 3f 57 a1 19 f6 e6 ce c0 bf
       0.612039816857869 -0.13131415382964448
000380 6e 68 44 5b 9e a2 b9 bf b9 86 db fc ce c9 93 bf
       -0.10013761261180473 -0.0193245260078416
000390 83 6e e3 f7 ec 9f bb 3f 6c d1 b3 78 74 b1 cb bf
       0.10790902187312139 -0.2163529958121545
0003a0 be 64 1c 71 be d2 d0 3f b0 49 5c 6e c0 de d0 3f
       0.26286278768527527 0.2635956838359119
0003b0 4d 99 a9 81 3f c1 d6 3f 2a 20 af 02 d4 b7 d3 bf
       0.3555449262843425 -0.30809498083226805
0003c0 6a 5f ad b4 5f 4e c3 3f 87 9a 26 28 dd fa db bf
       0.15082928011065216 -0.4371865169618236
0003d0 75 0d 6d cd 44 dc a9 bf 47 a1 03 41 eb 79 d5 3f
       -0.050508642269529704 0.33556634282151204
0003e0 20 c0 08 26 e1 a6 b3 3f 99 1b 12 dc 09 fd d6 bf
       0.07676512888497244 -0.35919424525530413
0003f0 a2 11 08 8b f9 ab c3 bf b7 1b 30 05 15 01 a8 bf
       -0.15368575371406928 -0.046883255847255105
000400 b9 3e 7a ea 78 13 d2 3f 0a a6 8f 17 1b b3 a2 bf
       0.2824384965724494 -0.036522719026674436
000410 92 8b 3f 6f 05 a6 c6 3f e9 76 09 63 cf 9c a3 3f
       0.17694156581918868 0.03830574115703007
000420 ea 16 6e 43 47 47 c5 3f 7b e0 1a 76 96 67 cf bf
       0.166237743305991 -0.24534874693722827
000430 87 c6 db 58 24 4d bd 3f 0c 37 f6 37 1a 58 9b 3f
       0.1144583432140057 0.026703271546970206
000440 ac 6e 0a 34 4b 8e c8 bf 4d ff 18 4f 75 17 b8 bf
       -0.1918424610238295 -0.09410794430823195
000450 1c c7 bd c0 90 4a b6 3f 0b a4 8b b1 2c ca c6 bf
       0.08707527833555812 -0.1780448786660432
000460 76 91 e3 a3 77 34 a6 3f b7 fa b1 fb 7b c8 77 3f
       0.04336904407117263 0.005806431111635638
000470 aa 95 9b 61 d0 73 4d 3f b0 ec 39 d3 3b 2b cd bf
       0.0008988158690185673 -0.22788188756735428
000480 72 d1 bd 8c 02 cf a8 3f 0f 6a ac b2 de 98 c7 bf
       0.04845436065707788 -0.18435271953860918
000490 e8 2a a4 cf df ea c1 bf c4 af 0b cd 28 2a d0 3f
       -0.13998029364332543 0.2525732042693074
0004a0 d4 b9 cc 73 13 7b b7 3f 4c a1 75 e2 39 01 bb bf
       0.09172174050465937 -0.10548745898052408
0004b0 ac f2 01 10 8b e1 b5 bf a9 9d ac cc aa c3 a2 bf
       -0.08547276631174822 -0.036649072155621916
0004c0 11 ec 23 65 6d b8 86 bf c1 51 18 5b 56 fe c1 bf
       -0.011093954705293315 -0.14057425926206515
0004d0 ab ba d3 a7 a3 3b 98 bf 41 43 dc bf 81 b8 c8 3f
       -0.023665005796767485 0.19313070171531346
0004e0 52 88 e2 a6 d8 60 c3 bf aa 73 b6 6c 95 f0 cd bf
       -0.15139301441837688 -0.23390453155744
0004f0 f4 7c 66 79 1c 4f ae bf 7f 4d ae d8 af 02 d7 3f
       -0.05919732076585574 0.3595389953636285
000500 05 01 56 c1 44 d9 68 bf 60 36 95 b4 fb 61 d5 bf
       -0.0030332892299044256 -0.3341054214004995
000510 9e b7 59 28 2f 67 cb 3f
       0.21408643217313011
